…
self.num_nn:  2
len(self.full_symb_data):  56
self.atom_types:  ['C', 'H']
max(itr):  39
nattr_maxs:  [3, 3]
world_size:  8
torch.cuda.is_available():  True
about to load train objects!
Data random seed:  0
args.trpath:  mf_model_0_1/training1/
keys:  ['aevs', 'forces', 'daevs', 'fdims', 'engs']
DATA LOADED!
model random seed: 1
activation functions: ['gaussian', 'gaussian', 'gaussian', 'identity']
lrscheduler:  rop
net: CompositeNetworks_MF(
  (NNs): ParameterList(
      (0): Object of type: ModuleList
      (1): Object of type: ModuleList
    (0): ModuleList(
      (0): LinearBlock(
        (linear): Linear(in_features=20, out_features=12, bias=False)
      )
      (1): LinearBlock(
        (linear): Linear(in_features=12, out_features=6, bias=False)
      )
      (2): LinearBlock(
        (linear): Linear(in_features=6, out_features=2, bias=False)
      )
      (3): LinearBlock(
        (linear): Linear(in_features=2, out_features=1, bias=False)
      )
    )
    (1): ModuleList(
      (0): LinearBlock(
        (linear): Linear(in_features=20, out_features=12, bias=False)
      )
      (1): LinearBlock(
        (linear): Linear(in_features=12, out_features=6, bias=False)
      )
      (2): LinearBlock(
        (linear): Linear(in_features=6, out_features=2, bias=False)
      )
      (3): LinearBlock(
        (linear): Linear(in_features=2, out_features=1, bias=False)
      )
    )
  )
  (NNs_hf): ParameterList(
      (0): Object of type: ModuleList
      (1): Object of type: ModuleList
    (0): ModuleList(
      (0): LinearBlock(
        (linear): Linear(in_features=21, out_features=12, bias=False)
      )
      (1): LinearBlock(
        (linear): Linear(in_features=12, out_features=6, bias=False)
      )
      (2): LinearBlock(
        (linear): Linear(in_features=6, out_features=2, bias=False)
      )
      (3): LinearBlock(
        (linear): Linear(in_features=2, out_features=1, bias=False)
      )
    )
    (1): ModuleList(
      (0): LinearBlock(
        (linear): Linear(in_features=21, out_features=12, bias=False)
      )
      (1): LinearBlock(
        (linear): Linear(in_features=12, out_features=6, bias=False)
      )
      (2): LinearBlock(
        (linear): Linear(in_features=6, out_features=2, bias=False)
      )
      (3): LinearBlock(
        (linear): Linear(in_features=2, out_features=1, bias=False)
      )
    )
  )
)
Data random seed:  0
args.trpath:  mf_model_0_1/training0/
keys:  ['forces', 'engs']
self.keys:  ['aevs', 'forces', 'daevs', 'fdims', 'engs']
self.keys_lf:  ['forces', 'engs']

GPU  cpu  epoch:  0
device  cpu   train MAE_lf:  55828.24998417694
device  cpu   train RMSE_lf:  56874.66472449692
device  cpu   train Linf_lf:  72419.51560640965
…
